ranking_model.pth (torch, 3392 bytes, 3 tensors)

fc1.weight f4 [64, 3]
00000000: 34d8 94bc 4d6a 9a3d 8e7c 2ebe dda5 f43e
00000010: e42b 90be cfc4 153f 1fd9 a6be 66ae e8be
00000020: f267 adbe 77e0 7f3e 0a99 0a3f 2740 273e
00000030: 599d f23d 3847 d7be 6622 323e 5518 073f
00000040: 34d5 21be 0073 033f a60e a03e 5cac cabe
00000050: e933 80be 3308 0d3f 496b 023f d4fc cb3e
00000060: e0c3 12bf 6438 b8bd d45b 6c3e 80ac b2bd
00000070: 3436 3abe 2496 ea3e dc45 09bf 48d6 853d
00000080: e20b 84be cc8d 63be a955 363f 72ac 75be
00000090: e576 5b3f a62e 5d3f af1a 4e3e 154a 843e
000000a0: d019 d63d d12b 273f 4086 573c 2a95 05bf
000000b0: 3070 6fbd d751 453f 4d62 77be c4cb 9b3e
000000c0: a931 a23e b882 143d 9c7c e2be f8fd bbbe
000000d0: 1c60 64be 4bfe ebbe 0c01 02bf 5c40 d7be
000000e0: 0632 f13e 17a3 12bf 4016 463f f6d0 acbe
000000f0: b7ee f23c d746 34bd c310 153f 045b 2c3e
00000100: 557c 833e d165 e93c 5435 0d3e a339 99be
00000110: 087f d83e 45da d2be b598 21bc 2172 553e
00000120: dc88 a8be 0d0e ec3e 403a 6dbd e87c 66be
00000130: 2075 aabe 405c f63d 6c8f eebd aea8 063f
00000140: 6874 9bbd 9477 953e 60d6 9e3c 2744 eebe
00000150: 6cf3 abbe 9c23 903d 390c 1f3f 33e7 1e3e
00000160: fda8 bd3e c99f 08bf 9bb5 53be 3a8a 783d
00000170: db3f 473f bc12 133f d83a d53e 19b3 df3e
00000180: 72f2 72be fe02 bdbe 5d22 fa3e d4f5 1a3f
00000190: 2c36 c13e fa02 e53e 6e2e 3abe 529e e33d
000001a0: 7250 0dbf aeee d6be 645c 183e 96c4 49be
000001b0: e7f6 d43e 2ff7 08bf c105 8f3d 8858 943e
000001c0: 1c37 403f 36d3 25be 6c52 88be 0050 e6bb
000001d0: ec3c 70be c71b aa3e bdab 58be d828 bbbe
000001e0: 4ac0 d23e ffbf 81be c4d2 453f 4b3e 453e
000001f0: 4974 d3be cdc4 a6be 1f74 163f ff00 3b3f
00000200: 2059 183e bdec 483f e65d 57be 3acd 3ebd
00000210: bec0 213f 0dc1 10bf 640c aebd bb75 e93e
00000220: fe71 81be 0065 64be f02f 393d f6d7 d1be
00000230: 8c41 c6be 6a6a c13e 1c7a ffbe f6c3 f13e
00000240: 3466 ddbe 0826 bfbe 46b7 3c3e e0a5 523e
00000250: 125c 40be 9884 243f 80d2 5d3c d9e8 f6be
00000260: 40a7 78bc 9bef af3e 5aa0 fd3d a833 bcbe
00000270: 1965 c9be c9a1 d63e 02f9 723e c8c9 8ebd
00000280: 9c0e ad3e 601c e73c a795 c33e d0d7 293e
00000290: d3c6 353d 6eb0 243f aea2 11bf 98a3 eabe
000002a0: 9819 1f3e eefb 903d 7ca5 bf3d 872a a7be
000002b0: 0853 a2bd c5c4 0fbf 65ed 183f d4d8 4d3d
000002c0: 08b9 323e 0612 8a3e 97d7 393e c134 ea3e
000002d0: 2131 323f 46f2 3abe 1db2 933e 5398 aabc
000002e0: aff6 423f 5e82 70be b81a 84bd 9609 1f3f
000002f0: 4351 09bf b61d 77be c5e2 d03e 2a74 3abe
-0.0181695 0.075398065 -0.17039701 0.47782794 -0.28158486 0.5850343 -0.32587525 -0.45445555
-0.33868366 0.2498797 0.5413977 0.16333066 0.11846418 -0.42046523 0.17395934 0.527715
-0.15803987 0.5134735 0.31261176 -0.39584625 -0.25039604 0.55090636 0.50944954 0.3984133
-0.5733013 -0.08995131 0.23081905 -0.08724308 -0.1818474 0.45817673 -0.5362222 0.065350115
-0.25790316 -0.2222206 0.7122446 -0.23991564 0.85728294 0.86399305 0.20127366 0.2583777
0.10454142 0.65301234 0.013154566 -0.5218073 -0.0584566 0.77078 -0.24158593 0.30428898
0.31678513 0.036257476 -0.44235694 -0.367172 -0.22302288 -0.46092448 -0.5078285 -0.4204129
0.47108477 -0.57280105 0.773777 -0.33753175 0.029654844 -0.04401287 0.582287 0.16831595
0.25680795 0.028490933 0.13789874 -0.29926786 0.42284417 -0.4118215 -0.009863068 0.20844318
-0.32916915 0.4610447 -0.05791688 -0.22508585 -0.33292484 0.12029314 -0.11648449 0.52601135
-0.07590562 0.29192793 0.019389331 -0.4653637 -0.33584154 0.07038042 0.62128025 0.15517883
0.3704299 -0.5336881 -0.20674746 0.060678698 0.7783181 0.5745046 0.41646457 0.43691328
-0.23725298 -0.36916345 0.48854342 0.60531354 0.37736642 0.44728833 -0.18181774 0.111141816
-0.55200875 -0.41978973 0.14878994 -0.19703898 0.41594622 -0.5350217 0.06983519 0.28973794
0.7508409 -0.16193852 -0.26625383 -0.0070285797 -0.2346074 0.33224317 -0.21159263 -0.365546
0.4116233 -0.25341794 0.7727473 0.19262044 -0.41299656 -0.32572022 0.58770937 0.73048395
0.14877748 0.78486234 -0.21031913 -0.046582438 0.63184726 -0.5654457 -0.08498457 0.45597634
-0.25282282 -0.22304153 0.045211732 -0.40985078 -0.38721883 0.377765 -0.4989785 0.4721982
-0.43242037 -0.37333703 0.18429288 0.20571089 -0.18785122 0.6426482 0.013538957 -0.48224524
-0.015176594 0.34362492 0.123841 -0.3675816 -0.39334944 0.41920307 0.23727801 -0.069720805
0.3380021 0.028211772 0.38200113 0.16586232 0.044379067 0.6433171 -0.56888855 -0.45827937
0.15537107 0.07079302 0.093577355 -0.32649633 -0.07925993 -0.5615962 0.59737235 0.05025561
0.17453396 0.26966876 0.18148647 0.45743373 0.69606215 -0.18256482 0.28846827 -0.020824587
0.7615766 -0.23487231 -0.06450409 0.62124 -0.5363962 -0.24132428 0.4079801 -0.18208376

fc1.bias f4 [64]
00000000: 8083 473f 9dea ba3d 805b 4c3e 3772 fd3e
00000010: ee8a 40be 454c 273f 7837 06bf dffa 043f
00000020: 59ce eebe 2589 ecbe f4fb debd c82a 86be
00000030: a686 0a3f 2e71 243f 2e24 9dbe e1cb 2e3f
00000040: 4688 b53e a0f6 523d bf36 573e 2494 f63d
00000050: 5fcb 2a3f a5fc c33e 90e0 fcbe 65ee d63e
00000060: 72e8 edbc 2330 febe e263 08bf 2fca 9abe
00000070: 156a 913e 5fcf 483e 43ea 363f 38e8 093e
00000080: 70a3 063e 4227 cc3e 62d0 04be 2a4e 00bf
00000090: af9f 073f b12d 62be 0114 b6be 90f7 0e3f
000000a0: 1355 9f3d b5f6 d73e 716a 193f 8f1a 243f
000000b0: 1f08 a2bc 309f 103e de19 aabe a5a4 fabe
000000c0: 8851 52be da38 303f c8bc 92bd a3ef ec3e
000000d0: 06ef b23e dab6 b5be d500 c23e b90f c83e
000000e0: 9fc7 053f 807c 6e3c 47cd 1d3e 8c06 c93e
000000f0: 1cd6 d93d 47d4 ee3d 249f 1cbd a40c dbbe
0.7793503 0.0912678 0.1995678 0.49501202 -0.18802997 0.65350753 -0.5242839 0.519453
-0.46641806 -0.46198383 -0.108879 -0.26204515 0.5411171 0.642352 -0.30691665 0.68279845
0.3545553 0.05150473 0.21016978 0.12039974 0.6671657 0.3827869 -0.49390078 0.41978756
-0.029041503 -0.496461 -0.5327741 -0.3023238 0.28401247 0.19610356 0.71451205 0.1346749
0.13148284 0.398737 -0.12970117 -0.5011927 0.5297803 -0.22087742 -0.35562137 0.558465
0.077798985 0.4218041 0.5992804 0.64103025 -0.019779263 0.14123225 -0.3322286 -0.4895374
-0.20538914 0.6883675 -0.071649134 0.46276578 0.34947985 -0.35491067 0.3789126 0.39074495
0.5225772 0.01455605 0.15410338 0.39262807 0.10636541 0.116615824 -0.038237706 -0.42783082

fc2.weight f4 [1, 64]
00000000: 9a58 a63e 6251 ba3e 6ca0 2f3d 7634 0c3e
00000010: 8592 68bd 36df 793e aa26 8c3d f87c a93e
00000020: b46e f23d 5c60 00bc 50bc 6b3d c6e4 443e
00000030: 8453 763e d6ac 913e 6845 3abd d4a7 433e
00000040: 1a07 9e3e 9053 c6bd 8c0c a53e aedc 9c3e
00000050: 45c3 a83e c15d 6a3e 8cc5 253d 28d2 9e3e
00000060: 030b ee3d c8e6 3f3d 4039 743d 978c c0bc
00000070: eabe a93e 2cc7 1a3e d048 9c3e 5c44 303e
00000080: 8cb7 953d 3f45 8f3e 70f5 22bd f4db 89bd
00000090: 789f 903e 3ad9 803e b45b d4bd 4759 0c3e
000000a0: 1e85 683e f990 013e 4192 7b3e 4253 8c3e
000000b0: 715b bf3e 84fd 9e3e 60fc e3bb eec7 27bd
000000c0: eaf8 72bd 2faf 8a3e 806f 23bb 2ce1 f93d
000000d0: 4d52 833d 89e3 31bd 6983 c03d 8050 863e
000000e0: 54c3 b53e e47e 6b3d bc1a 8f3e 224a 9d3d
000000f0: dbfa 963e fcda 8e3e 5246 a73e d697 58bd
0.32489473 0.36390215 0.0428776 0.13691887 -0.056780357 0.24401554 0.06843312 0.33103156
0.11837521 -0.007835474 0.057552636 0.19227895 0.24055296 0.28452176 -0.045476347 0.1910699
0.30864793 -0.09683907 0.32236135 0.30637115 0.3296148 0.22887327 0.0404716 0.31019711
0.11623194 0.04685095 0.05962491 -0.023504538 0.33153468 0.1511504 0.30524302 0.17213577
0.073103994 0.27982518 -0.03978485 -0.06731406 0.28246665 0.2516573 -0.103690535 0.13705932
0.2270703 0.12652959 0.2456751 0.2740727 0.37374452 0.31052792 -0.0069575757 -0.040962152
-0.059319414 0.2708678 -0.0024938285 0.12201151 0.06412182 -0.043429885 0.094000645 0.26233292
0.35500586 0.05749406 0.27950084 0.07680155 0.29488263 0.27901447 0.32670838 -0.052879177
